# YOLOv12 🚀, AGPL-3.0 license
# YOLOv12 object detection model with P2-P5 outputs (Top-down only, no bottom-up)
# Ablasi 22: Baseline (Ablasi 16) + Increased area untuk high-res layers (area=32 untuk P2/P3 instead of 16) untuk better spatial attention

# Parameters
nc: 1 # number of classes
scales: # model compound scaling constants, i.e. 'model=yolov12n.yaml' will call yolov12.yaml with scale 'n'
  # [depth, width, max_channels]
  s: [0.50, 0.50, 1024] # summary: 465 layers, 9,285,632 parameters, 9,285,616 gradients, 21.7 GFLOPs

# YOLO12n backbone (ABLASI 22: Sama dengan Ablasi 16 - Optimized MLP ratio 1.5 untuk lebih efisien di backbone)
backbone:
  # [from, repeats, module, args]
  - [-1, 1, Conv, [64, 3, 2]] # 0-P1/2
  - [-1, 1, Conv, [128, 3, 2]] # 1-P2/4
  - [-1, 4, C3k2, [256, False, 0.25]]
  - [-1, 1, Conv, [256, 3, 2]] # 3-P3/8
  - [-1, 4, C3k2, [512, False, 0.25]]
  - [-1, 1, Conv, [512, 3, 2]] # 5-P4/16
  - [-1, 4, A2C2f, [512, True, 8, True, 1.5]] # 6: A2C2f dengan area=8, residual=True, mlp_ratio=1.5 (optimized untuk backbone)
  - [-1, 1, Conv, [1024, 3, 2]] # 7-P5/32
  - [-1, 4, A2C2f, [1024, True, 8, True, 1.5]] # 8: A2C2f dengan area=8, residual=True, mlp_ratio=1.5 (optimized untuk backbone)

# YOLO12n head (ABLASI 22: TOP-DOWN dengan MLP ratio 2.5, increased repeats n=3, dan increased area untuk high-res)
head:
  # ---------- TOP-DOWN (P5 -> P4 -> P3 -> P2) ----------
  - [-1, 1, nn.Upsample, [None, 2, "nearest"]] # 9: upsample P5 -> P4 scale
  - [[-1, 6], 1, Concat, [1]] # 10: cat backbone P4 (6)
  - [-1, 3, A2C2f, [512, False, 8, True, 2.5]] # 11: P4_n dengan n=3, area=8, residual=True, mlp_ratio=2.5

  - [-1, 1, nn.Upsample, [None, 2, "nearest"]] # 12: upsample P4_n -> P3 scale
  - [[-1, 4], 1, Concat, [1]] # 13: cat backbone P3 (4)
  - [-1, 3, A2C2f, [256, False, 32, True, 2.5]] # 14: P3_n dengan n=3, area=32 (increased from 16 untuk better spatial attention), residual=True, mlp_ratio=2.5

  - [-1, 1, nn.Upsample, [None, 2, "nearest"]] # 15: upsample P3_n -> P2 scale
  - [[-1, 2], 1, Concat, [1]] # 16: cat backbone P2 (2)
  - [-1, 3, A2C2f, [256, False, 32, True, 2.5]] # 17: P2_n dengan n=3, area=32 (increased from 16 untuk better spatial attention), residual=True, mlp_ratio=2.5

  # ---------- Detect di 4 scale: P2, P3, P4, P5 (dari top-down pathway) ----------
  # Note: P5 langsung dari backbone layer 8, P4-P2 dari top-down pathway
  - [[17, 14, 11, 8], 1, Detect, [nc]] # Detect(P2, P3, P4, P5) - top-down dengan increased area=32 untuk high-res layers

