# YOLOv12 🚀, AGPL-3.0 license
# YOLOv12 object detection model with P2-P5 outputs (Top-down only, no bottom-up)
# Ablasi 12: Baseline (Ablasi 4) + A2C2f dengan area=8 untuk enhanced attention dan eksperimen konfigurasi

# Parameters
nc: 1 # number of classes
scales: # model compound scaling constants, i.e. 'model=yolov12n.yaml' will call yolov12.yaml with scale 'n'
  # [depth, width, max_channels]
  s: [0.50, 0.50, 1024] # summary: 465 layers, 9,285,632 parameters, 9,285,616 gradients, 21.7 GFLOPs

# YOLO12n backbone (SAMA DENGAN ABLASI 4)
backbone:
  # [from, repeats, module, args]
  - [-1, 1, Conv, [64, 3, 2]] # 0-P1/2
  - [-1, 1, Conv, [128, 3, 2]] # 1-P2/4
  - [-1, 4, C3k2, [256, False, 0.25]]
  - [-1, 1, Conv, [256, 3, 2]] # 3-P3/8
  - [-1, 4, C3k2, [512, False, 0.25]]
  - [-1, 1, Conv, [512, 3, 2]] # 5-P4/16
  - [-1, 4, A2C2f, [512, True, 8]] # 6: A2C2f dengan area=8 untuk enhanced attention
  - [-1, 1, Conv, [1024, 3, 2]] # 7-P5/32
  - [-1, 4, A2C2f, [1024, True, 8]] # 8: A2C2f dengan area=8

# YOLO12n head (ABLASI 12: TOP-DOWN ONLY dengan A2C2f area=8)
head:
  # ---------- TOP-DOWN (P5 -> P4 -> P3 -> P2) ----------
  - [-1, 1, nn.Upsample, [None, 2, "nearest"]] # 9: upsample P5 -> P4 scale
  - [[-1, 6], 1, Concat, [1]] # 10: cat backbone P4 (6)
  - [-1, 2, A2C2f, [512, False, 8]] # 11: P4_n dengan area=8

  - [-1, 1, nn.Upsample, [None, 2, "nearest"]] # 12: upsample P4_n -> P3 scale
  - [[-1, 4], 1, Concat, [1]] # 13: cat backbone P3 (4)
  - [-1, 2, A2C2f, [256, False, 8]] # 14: P3_n dengan area=8

  - [-1, 1, nn.Upsample, [None, 2, "nearest"]] # 15: upsample P3_n -> P2 scale
  - [[-1, 2], 1, Concat, [1]] # 16: cat backbone P2 (2)
  - [-1, 2, A2C2f, [256, False, 8]] # 17: P2_n dengan area=8

  # ---------- Detect di 4 scale: P2, P3, P4, P5 (dari top-down pathway) ----------
  # Note: P5 langsung dari backbone layer 8, P4-P2 dari top-down pathway
  - [[17, 14, 11, 8], 1, Detect, [nc]] # Detect(P2, P3, P4, P5) - top-down only dengan A2C2f area=8

# Validating tb_detections/YOLOv12s_vanilla_run1_stage1/weights/best.pt...
# Ultralytics 8.3.63 🚀 Python-3.12.12 torch-2.9.0+cu126 CUDA:0 (Tesla T4, 15095MiB)
# YOLO12s-ablasi12 summary (fused): 352 layers, 6,983,988 parameters, 0 gradients, 31.1 GFLOPs
#                  Class     Images  Instances      Box(P          R      mAP50  mAP50-95): 100%|██████████| 5/5 [00:02<00:00,  1.85it/s]
#                    all        140       1127      0.767      0.718      0.808      0.393
# Speed: 0.2ms preprocess, 10.3ms inference, 0.0ms loss, 1.0ms postprocess per image
# Results saved to tb_detections/YOLOv12s_vanilla_run1_stage1

