# YOLOv12 🚀, AGPL-3.0 license
# YOLOv12 object detection model with P2-P5 outputs (Top-down only, no bottom-up)
# Ablasi 13: Baseline (Ablasi 12) + A2C2f dengan area=8 dan residual=True untuk enhanced feature extraction

# Parameters
nc: 1 # number of classes
scales: # model compound scaling constants, i.e. 'model=yolov12n.yaml' will call yolov12.yaml with scale 'n'
  # [depth, width, max_channels]
  s: [0.50, 0.50, 1024] # summary: 465 layers, 9,285,632 parameters, 9,285,616 gradients, 21.7 GFLOPs

# YOLO12n backbone (SAMA DENGAN ABLASI 12 + RESIDUAL)
backbone:
  # [from, repeats, module, args]
  - [-1, 1, Conv, [64, 3, 2]] # 0-P1/2
  - [-1, 1, Conv, [128, 3, 2]] # 1-P2/4
  - [-1, 4, C3k2, [256, False, 0.25]]
  - [-1, 1, Conv, [256, 3, 2]] # 3-P3/8
  - [-1, 4, C3k2, [512, False, 0.25]]
  - [-1, 1, Conv, [512, 3, 2]] # 5-P4/16
  - [-1, 4, A2C2f, [512, True, 8, True]] # 6: A2C2f dengan area=8 dan residual=True
  - [-1, 1, Conv, [1024, 3, 2]] # 7-P5/32
  - [-1, 4, A2C2f, [1024, True, 8, True]] # 8: A2C2f dengan area=8 dan residual=True

# YOLO12n head (ABLASI 13: TOP-DOWN ONLY dengan A2C2f area=8 dan residual=True)
head:
  # ---------- TOP-DOWN (P5 -> P4 -> P3 -> P2) ----------
  - [-1, 1, nn.Upsample, [None, 2, "nearest"]] # 9: upsample P5 -> P4 scale
  - [[-1, 6], 1, Concat, [1]] # 10: cat backbone P4 (6)
  - [-1, 2, A2C2f, [512, False, 8, True]] # 11: P4_n dengan area=8 dan residual=True

  - [-1, 1, nn.Upsample, [None, 2, "nearest"]] # 12: upsample P4_n -> P3 scale
  - [[-1, 4], 1, Concat, [1]] # 13: cat backbone P3 (4)
  - [-1, 2, A2C2f, [256, False, 8, True]] # 14: P3_n dengan area=8 dan residual=True

  - [-1, 1, nn.Upsample, [None, 2, "nearest"]] # 15: upsample P3_n -> P2 scale
  - [[-1, 2], 1, Concat, [1]] # 16: cat backbone P2 (2)
  - [-1, 2, A2C2f, [256, False, 8, True]] # 17: P2_n dengan area=8 dan residual=True

  # ---------- Detect di 4 scale: P2, P3, P4, P5 (dari top-down pathway) ----------
  # Note: P5 langsung dari backbone layer 8, P4-P2 dari top-down pathway
  - [[17, 14, 11, 8], 1, Detect, [nc]] # Detect(P2, P3, P4, P5) - top-down only dengan A2C2f area=8 dan residual=True


  # 81.1
  # 0.395
